mnist_cnn.pt (torch, 250239 bytes, 10 tensors)

conv1.weight f4 [6, 1, 5, 5]
000000 18 8d 32 3e 8e db a5 3e 31 31 d4 3e 7b ec f1 3e
       0.17436635 0.3239407 0.4144378 0.47250733
000010 7a 28 c8 3e 03 55 37 3e 0b 0f a0 3e e1 85 89 3e
       0.3909338 0.17903523 0.31261477 0.26859954
000020 dd 58 ad 3d a4 6a b6 3d 66 0e 24 3e 30 b8 4a be
       0.08464215 0.08907059 0.16021118 -0.19796824
000030 ea 33 b6 bd f9 ed 67 be bc 7e 35 be 00 ba aa be
       -0.088966206 -0.22649373 -0.17724127 -0.33345032
000040 71 ae 4e be 2e be d6 be 6a b7 c7 bd f3 e4 90 bd
       -0.20183732 -0.4194197 -0.0975178 -0.070749186
000050 71 9f 85 be 7f 6f 8b be 15 16 6d bd e7 b1 4d be
       -0.26098207 -0.27233502 -0.057882387 -0.20087396
000060 0a 90 ca 3c 52 3f 29 3e 4d 5a fc 3d f5 0d c8 be
       0.024726886 0.16528061 0.12321911 -0.39073148
000070 0d 53 8b be 97 e7 34 be 5a 07 83 3c 2d 22 e2 bd
       -0.272118 -0.1766647 0.015994716 -0.11041675
000080 84 43 46 be 31 35 bb be 4a 6e c2 be f6 a0 c3 3e
       -0.19361693 -0.3656402 -0.3797477 0.3820874
000090 9b 8d a7 3e d4 ad 81 ba f8 15 33 3d 32 5f 36 3d
       0.32725224 -0.0009893724 0.043722123 0.04452438
0000a0 25 c4 6f bd 5e f3 e9 3e 9b 0a ff 3e 47 df 84 3e
       -0.058536667 0.45693487 0.4981278 0.25951597
0000b0 6a b2 9e 3e 19 e3 ad 3d 06 21 09 be 04 5d cc 3d
       0.30995494 0.08490581 -0.13391504 0.09978679
0000c0 5c a8 74 3e c7 7c 84 3e 69 11 44 be c2 9d 18 be
       0.23892349 0.25876448 -0.19147266 -0.1490393
0000d0 bd 6e 0d be 8d 30 92 3e 62 bb 8d 3e fb a6 a9 be
       -0.13811775 0.28552666 0.27682024 -0.33135208
0000e0 42 cc fd bd a4 06 18 3e 9d b7 a8 3e 16 0b 6c 3e
       -0.12392475 0.14846283 0.32952586 0.23051104
0000f0 7e 1d 98 be 43 d4 32 be 9f d5 aa 3e 40 7d 01 3f
       -0.2971 -0.17463784 0.33366105 0.5058174
000100 1d eb 7f 3e b7 ff 11 be d4 69 5f 3d 2d 01 bf 3e
       0.24992032 -0.14257704 0.054544285 0.37305585
000110 ee ff 8b 3e 76 c2 ca bd aa 75 6a bd bd 47 9e 3e
       0.27343696 -0.09900372 -0.05724112 0.30914107
000120 3b 20 0f 3e e9 32 0b 3e b2 82 6a bd c7 46 2c be
       0.13977139 0.1359364 -0.057253547 -0.16823874
000130 40 07 2b be 09 3f f9 bd 00 a3 04 3e 26 a7 3d 3e
       -0.16701984 -0.12170226 0.12952805 0.18520793
000140 b6 56 9c 3c 21 fc 28 3d c5 ae 6f be 95 2e 70 bd
       0.019084316 0.041256074 -0.23406513 -0.058638174
000150 28 44 9a 3e 11 a7 0b 3d 6e 1e 56 be 25 85 19 be
       0.30130124 0.034094874 -0.20910046 -0.14992197
000160 11 53 24 3e 70 ff 1f 3d 00 92 a9 3d 93 b1 f7 bd
       0.16047312 0.039061964 0.082798004 -0.120944165
000170 34 a1 52 be c5 f3 9c bc 5e 69 2e 3e 31 dc e5 3d
       -0.20569307 -0.019159207 0.17032382 0.11223639
000180 ca d8 86 be 06 a7 ad 3d 2f f5 ff bd a1 c3 90 3e
       -0.26337272 0.08479123 -0.12497937 0.28274253
000190 d1 f0 44 bd a7 41 eb bd 22 5a 83 3e f7 26 fe 3d
       -0.048081223 -0.114871316 0.25654703 0.12409776
0001a0 9c 3f 92 bd c8 e7 9e bb 2e 93 04 bc 1b ac 20 bc
       -0.07141039 -0.004849408 -0.008091731 -0.009806658
0001b0 ca 5e 0a be 05 71 c3 bd 4e d5 db 3d 0f dc 63 3d
       -0.13512722 -0.09543041 0.10734044 0.055629786
0001c0 7d 44 ee 3d 08 3c be bd 09 26 19 be b2 bc cc bc
       0.11634157 -0.09288794 -0.14955916 -0.02499232
0001d0 96 1f 19 3e b2 05 24 be 9b 5f 71 be fc ae d6 bd
       0.14953455 -0.16017798 -0.23571627 -0.10482594
0001e0 c2 eb 03 bd 4f b2 1b be 60 f8 0d be ce f7 37 be
       -0.032207258 -0.15204738 -0.13864279 -0.17965624
0001f0 fe ea 19 3e db ef 0f 3e 2a c0 fe 3d c7 f2 8b 3b
       0.15031049 0.14056341 0.12438996 0.0042708847
000200 99 89 b8 3d 3c 8c a3 3e ef 2c 8e 3e 3b ad 86 3e
       0.0901062 0.31942928 0.27768657 0.2630404
000210 e4 92 15 3e b5 8b 09 3f e1 d3 bc 3e fa 70 b7 bd
       0.14606816 0.537288 0.368804 -0.089570954
000220 99 63 ad bd 2e e5 98 3e a0 a5 df 3e 74 b0 b5 3e
       -0.08466262 0.2986235 0.4368105 0.35486186
000230 95 6b 09 bd 7a 6b 34 bd 42 96 b7 bd ce 59 a5 3e
       -0.033549864 -0.04404781 -0.08964206 0.32295078
000240 af 10 d1 3e c4 fd 78 be b8 71 f5 3c a2 1d a9 bd
       0.4083304 -0.24315554 0.029961452 -0.08257605
000250 c9 ab a3 3a 4b 0c 11 3e
       0.0012487109 0.14164846

conv1.bias f4 [6]
000000 3b e9 c1 3d 69 c9 1c 3e 8b 8e 7e bd 6c 82 d7 bd
       0.09468313 0.15311207 -0.06214766 -0.10522923
000010 8b 83 54 3e b3 b5 0d 3e
       0.20753305 0.13838844

conv2.weight f4 [16, 6, 5, 5]
000000 78 5e 8d 3c 30 b1 28 bd ae 88 1e bd 25 ac 6f bd
       0.01725696 -0.041184604 -0.038704567 -0.05851378
000010 12 da 1c bd 6c 41 07 3d 0c 2b dc bd b7 77 a3 bd
       -0.038293906 0.033021376 -0.10750398 -0.07981818
000020 9e d8 97 bd 4c 80 3a bd 3c a7 aa bb 14 32 30 be
       -0.07414363 -0.04553251 -0.005207924 -0.17206603
000030 38 98 94 bc 60 7a 72 3d eb 87 55 bd ba 68 c3 bd
       -0.01813899 0.059198737 -0.052131575 -0.095414594
000040 5d 6a 48 bd fc 15 38 bd 21 77 54 be 16 4e 2a be
       -0.04892956 -0.04494284 -0.20748569 -0.1663135
000050 07 43 3d bd 88 31 3f be 20 34 e0 bd ad bf 32 bd
       -0.0462065 -0.18671238 -0.10947442 -0.043639828
000060 5b 5f f5 bd 29 77 39 bc d0 35 ba bd 68 89 52 bd
       -0.11981078 -0.011319914 -0.09092295 -0.051400572
000070 79 fe 0f bc 87 c4 f7 bc e7 40 f2 bd d6 b9 2c be
       -0.008788698 -0.030245079 -0.118287854 -0.16867766
000080 8b 98 f1 bd 53 52 95 bd 5f bb 0c 3a 3b 48 bd bd
       -0.117966734 -0.07291093 0.00053684966 -0.092422925
000090 b3 dc 70 be c9 e6 1b be b9 43 15 bd 14 f9 78 bd
       -0.2352169 -0.15224756 -0.03644154 -0.060784414
0000a0 6c 40 8a bd 93 d5 66 be 58 e1 b7 3c 1e 34 b5 3d
       -0.06750569 -0.2254241 0.02244632 0.08847831
0000b0 56 de 9e bc c1 98 df bd fb 03 4e bc b6 e1 3c 3e
       -0.019393127 -0.10917807 -0.012574191 0.18445477
0000c0 9c d3 dc 3d 9d 30 50 3d b3 2f 91 bd 7a c4 3d bc
       0.10782549 0.05082761 -0.07089176 -0.011582488
0000d0 ba 21 91 3d 4e cd 02 3e 2d 8f b1 3c 6d b4 f6 bc
       0.07086511 0.1277363 0.021674717 -0.03011533
0000e0 8c 69 16 3e 70 f1 ad 3e ea da bc 3d 8c 6e 10 be
       0.146887 0.33973265 0.09221442 -0.1410467
0000f0 74 cf 48 3e fc b9 93 3e a7 38 82 3e e4 d4 82 bd
       0.19610387 0.28852832 0.25433847 -0.06388262
000100 b0 2a 15 bc 7e bb 5c 3e 04 c6 c2 3d 50 16 8e 3d
       -0.009104416 0.21555898 0.09510425 0.069378495
000110 d0 72 27 be db 59 a7 3c 77 39 56 bc ac 2b 4b bd
       -0.16352391 0.020428589 -0.013075224 -0.049602196
000120 32 58 44 bd d3 55 f7 3c 7b 11 01 3e 94 b2 5b 3c
       -0.047935672 0.030192291 0.12604325 0.013409276
000130 71 1e eb bc 4c c4 97 bb 7a f9 9b bd 55 ac 27 bd
       -0.028701039 -0.0046315547 -0.07615943 -0.040935833
000140 bc 58 02 3d dd 45 e5 3d 97 60 c8 3c ab a2 80 bc
       0.031822905 0.11194966 0.02446012 -0.015702566
000150 ce 8f 8f 3d 89 f7 8d 3d 1b 89 3c 3d 9b 50 92 3d
       0.070098504 0.06931979 0.04602919 0.071442805
000160 23 64 42 3d 37 78 c4 bc b1 3e 9d 3b 11 be 48 3c
       0.04745878 -0.023983104 0.004798733 0.012252347
000170 9a 7f 9c 3d 82 e7 44 bd 91 37 79 3c 6b 4e 1c 3d
       0.076415256 -0.048072346 0.015211002 0.038160723
000180 4d ae eb 3d 92 fa 53 bd 00 b5 77 3d d6 06 be 3c
       0.115078546 -0.051752634 0.06047535 0.023196619
000190 b1 cf e6 bb 03 1c 6c bd 35 13 14 3d b6 c2 73 3d
       -0.0070438017 -0.0576439 0.03615113 0.059511863
0001a0 71 68 ac 3c d5 cd a0 3c 98 2f 8a 3c 93 ba a4 3d
       0.021045895 0.019629398 0.016868398 0.08043399
0001b0 c5 9a 52 3c 52 12 b5 3b b6 79 e3 bc 8d 97 d2 3d
       0.012854283 0.0055258656 -0.027767997 0.10282812
0001c0 a8 72 24 3d a2 d2 cd 3d 0c e0 68 3d bb 07 17 bd
       0.040148407 0.10049941 0.056854293 -0.036872607
0001d0 a5 73 77 bd 60 8d a0 bd 78 63 e7 bc 19 36 80 bd
       -0.06041302 -0.07839465 -0.028245673 -0.06260318
0001e0 ab de 68 3d fc 26 59 3c 75 1b 62 3c 13 8b b9 bd
       0.056852978 0.0132539235 0.013800492 -0.090597294
0001f0 1c 01 47 bd 12 98 7d bd 0c 81 52 3c f2 8b 39 3e
       -0.048585042 -0.061912604 0.01284815 0.18119791
000200 d9 59 25 3d c7 6f 11 be 84 88 d8 bd f4 36 fc 3d
       0.04036889 -0.14202796 -0.10572913 0.12315169
000210 39 b9 2f 3e 48 01 fd bd c4 40 2d be 04 b3 ac 3d
       0.171605 -0.1235376 -0.16919237 0.08432582
000220 37 e4 50 3e 33 bb 82 bd 53 4e 8d be 27 07 c6 bd
       0.20399557 -0.06383362 -0.2759882 -0.09669333
000230 06 5a 54 3e 36 29 e2 3d 52 68 f2 bd b0 f1 55 be
       0.20737466 0.110430166 -0.11836304 -0.20892978
000240 67 dc ae bd 73 e8 27 3e 15 43 54 3b db 63 52 bd
       -0.08538132 0.16397266 0.0032388617 -0.05136476
000250 c8 81 56 bd 6a 78 ea 3d 4b bd f4 bc a6 25 b1 bd
       -0.052369863 0.114487484 -0.029875418 -0.08649759
000260 01 52 bf bd 49 56 7f bd 95 cd 80 3d d8 ee 5e 3c
       -0.09341813 -0.062338147 0.06289212 0.0136067495
000270 de 8b 7f bd 0d 59 8b bd 22 aa c3 bc 50 5e 29 3c
       -0.062389247 -0.068040945 -0.023884837 0.010337427
000280 90 24 16 bd 44 a7 69 bc a8 89 86 bd 00 b8 ad bd
       -0.036655962 -0.014261071 -0.065692246 -0.08482361
000290 c7 66 a9 bc dd 3c 75 3d 73 8f a2 bd fa 8b fd bd
       -0.02067889 0.059872497 -0.07937517 -0.12380214
0002a0 04 5a 14 be a5 91 13 be 38 70 e2 bd 82 6d a7 bd
       -0.14487463 -0.14411028 -0.1105656 -0.08175184
0002b0 92 8b 39 bd dc 0c 7f 3d 62 3e 8e 3d 43 c8 85 3b
       -0.04529912 0.062268123 0.06945492 0.004082711
0002c0 f4 91 a7 3c 16 2b 61 3d 19 6c b2 bd fb 6c 5f 3d
       0.020455338 0.05497273 -0.08712024 0.05454729
0002d0 5d 47 07 bc d1 4e 1d bc db d0 4a 3d 78 6f 76 bb
       -0.00825676 -0.009601311 0.049515586 -0.0037603062
0002e0 9b 22 50 3d 50 69 06 be ad d6 8f bd 98 7b 1c 3d
       0.050814252 -0.13126111 -0.07023368 0.038203806
0002f0 e8 94 09 3e fd 5a 82 b9 7c 43 bc bd c8 44 47 be
       0.1343571 -0.00024863324 -0.09192559 -0.19459832
000300 b2 e6 00 3c 12 e3 41 3e c5 04 33 3e e7 c1 67 bd
       0.007867502 0.18934277 0.17482288 -0.056581404
000310 a4 45 e6 bd 48 f7 23 3d 5c 34 c9 3d ba 80 c1 3d
       -0.11243752 0.040030748 0.0982444 0.09448381
000320 bc 02 7d bd 18 3d 1f bd 18 13 8e bd ce 36 19 3c
       -0.061770186 -0.038876623 -0.069372356 0.009351445
000330 1a fe f2 3c ef 5f dc bb 51 71 94 3c 04 24 34 3c
       0.02966218 -0.0067253034 0.01812044 0.010994915
000340 ae 8f c6 3d 0a 85 19 bd aa 35 9d bd 97 14 1d 3e
       0.096953735 -0.03748039 -0.07676251 0.15339886
000350 65 5f 71 3d 3c 01 89 bd 39 15 a6 bd 61 35 f2 3b
       0.058928866 -0.066896886 -0.08109517 0.007391617
000360 35 78 0c 3e 8c b4 47 3d 95 85 3e be 68 c9 a5 bd
       0.1371773 0.048756167 -0.18605645 -0.08095056
000370 e0 d9 e9 bc 7b 7d 53 bd e5 17 3b 3d 12 30 5c bd
       -0.028546274 -0.05163334 0.045677084 -0.05375678
000380 6b 64 02 be 03 5d a9 bd 77 9e e7 3b 95 fc 37 bd
       -0.12733619 -0.08269694 0.007068451 -0.044918615
000390 c9 39 8a 3c 94 64 04 3a 13 fd bb 3c 9c ed 5c 3d
       0.016873257 0.00050503877 0.022947824 0.05393754
0003a0 db 91 e8 bc f1 73 7d 3d 02 05 7c 3d a1 b3 95 3d
       -0.028389862 0.06187815 0.061528213 0.07309652
0003b0 6b 8a e0 3d 16 0d 9d bb a0 8e c1 3c 3f 01 d6 3c
       0.10963901 -0.0047928197 0.02362758 0.026123641
0003c0 c1 11 0c bd 62 3d e5 3d ad 72 3a 3c cb 76 9f bd
       -0.03419662 0.111933485 0.01137988 -0.0778633
0003d0 cc 03 6a 3d 29 6e ee 3c 52 89 dc 3c 58 17 1d 3d
       0.057132527 0.029105263 0.026920948 0.03835234
0003e0 2e 74 84 bd b6 3e 54 bd 48 cd 00 3c 1d 73 57 bd
       -0.06467472 -0.05181762 0.007861443 -0.052600015
0003f0 63 3f 9e bc d5 24 69 3d 61 21 6e 3d c1 31 5b 3c
       -0.019317335 0.05691989 0.0581373 0.0133785615

conv2.bias f4 [16]
000000 ff 1c 72 3d e4 d4 60 3d 5e 7f f9 bc 84 34 70 3c
       0.059109684 0.05489053 -0.030456241 0.014660958
000010 ff d9 8e bc 33 9b 9f bd d6 fa 44 3d 51 d9 b0 bc
       -0.017437933 -0.07793274 0.04809078 -0.021588
000020 c4 de 5f bd af 48 cb 3c 3d eb 8b 3d 58 1d 8d 3c
       -0.054655805 0.024814932 0.068319775 0.017225906
000030 c3 30 5a 3b d1 55 39 3d f2 9b 83 bd 42 e1 48 3d
       0.0033293224 0.045247857 -0.064262286 0.049042948

fc1.weight f4 [120, 400]
000000 bf 6b 15 3d 52 44 f1 bc db d4 b5 3b 54 4b 45 3d
       0.036479708 -0.029451523 0.005549056 0.04816754
000010 2d 6c 60 3d 91 bc 03 3d ca 0a 3f bc ab 1a 83 bd
       0.054790664 0.032162253 -0.011660287 -0.06401571
000020 48 d6 a6 bc 5a a9 9d 3d ca 02 17 3c d6 bb 9b 3b
       -0.02036585 0.07698317 0.009216974 0.0047526164
000030 ed a3 91 3c ac 69 24 bc 81 cf cf bc 5a bb cc bb
       0.017778361 -0.01003496 -0.0253675 -0.00624792
000040 10 24 71 bc 27 a2 21 bd cf f2 47 bd d7 fe e7 3b
       -0.014718071 -0.03946128 -0.048815545 0.00707994
000050 f1 7f 3f bd 11 d1 4d 3c 8c cc 90 3c 05 99 21 3d
       -0.046752874 0.012562052 0.01767566 0.03945257
000060 8d 49 42 3d 94 0e 04 3d 72 0e 0d 3d 86 2d 8c 3d
       0.047433425 0.032240465 0.034437604 0.068446204
000070 e4 c9 86 3d a5 74 37 3d 69 47 35 bb 4a 93 ee 3b
       0.06581476 0.044788975 -0.0027660972 0.007280742
000080 c2 eb 6f 3d 8c c8 c1 3c a4 4f 70 3d f7 3d 33 3d
       0.058574446 0.023655199 0.0586697 0.043760266
000090 1d a8 07 3b 35 7b 02 3d 56 1f 91 bc aa a3 ca ba
       0.0020699569 0.03185578 -0.017715137 -0.0015460153
0000a0 dc af a4 3d 74 be 46 3c 89 2c 31 3d af 54 85 3c
       0.08041355 0.0121303685 0.043255363 0.016275732
0000b0 c8 ae 83 bc f3 a7 39 3d 7f 92 0b bd 08 f6 df bc
       -0.016074553 0.045326184 -0.034075256 -0.027338997
0000c0 a5 33 7a bd 43 41 1d bd 00 f7 04 3d d3 19 e7 3c
       -0.06108441 -0.038392317 0.03246212 0.028210556
0000d0 0e 28 f8 bc 72 2c 20 bd 69 bf e7 3c 8e 2c 23 3d
       -0.030292537 -0.039104886 0.028289514 0.039837413
0000e0 de 87 34 3c 16 a4 5e bd c5 5c 5f bd e5 62 0d 3c
       0.011018721 -0.054355703 -0.05453183 0.008629535
0000f0 64 39 3d 3c c5 21 34 3c cf 23 2c 3d 47 12 06 bd
       0.0115493275 0.010994379 0.042026337 -0.032732274
000100 35 0e 60 bd d4 f9 e8 bc bd 9a 07 3d f6 d7 4f bb
       -0.05470105 -0.02843944 0.033106554 -0.0031714416
000110 31 62 b7 3c 54 52 2f 3d d8 4a 40 bd e1 00 82 bd
       0.022385688 0.042803124 -0.046946377 -0.06347824
000120 fa 71 cd bc fe 44 bb 3b 6d 75 e9 3c 34 69 76 bb
       -0.025078762 0.0057150116 0.028498376 -0.0037599327
000130 56 95 ca bc d8 27 08 bd 29 5e 5a 3d fa f7 8b bd
       -0.024729412 -0.033241123 0.053312454 -0.06834407
000140 05 db a7 3c b7 8a dc 3c b1 a4 90 bc 1f 5b 11 3d
       0.020490179 0.026921613 -0.017656656 0.03548729
000150 cf b6 1f bd 85 1f 1c bd 38 c9 aa bc 4b 07 09 bd
       -0.0389927 -0.038115997 -0.020847902 -0.03345422
000160 cc e0 e5 bc 47 fe c8 bc b8 40 db 3c e1 8e 77 3c
       -0.028061293 -0.024535311 0.026764259 0.015109749
000170 51 fd 98 3c 97 af 33 3d 8a cc 7b 3c 66 4f a6 3c
       0.018675478 0.043868627 0.01536859 0.020301532
000180 8a 83 d8 bc 13 f4 2a bd eb a2 9d 3b fa 63 cc bc
       -0.02642991 -0.041736674 0.004810681 -0.024950016
000190 38 63 05 3c 86 a3 27 3a a3 8b c7 bc b8 53 d5 bc
       0.008141331 0.00063949113 -0.024358576 -0.026040897
0001a0 fe 9d 25 bd 16 e8 48 bc a9 88 3c bd ff a9 29 bd
       -0.040433876 -0.012262365 -0.046028767 -0.041421887
0001b0 2c 78 d4 bd 0e c5 a1 bc f1 a1 4b ba 21 61 b6 3c
       -0.103744835 -0.019747283 -0.00077679666 0.022263112
0001c0 ed 61 41 3d 0e dc 6f 3c d9 05 1f 3d c0 1d 0b bc
       0.04721253 0.0146398675 0.038823936 -0.00849098
0001d0 0e 3b 7a 3c 24 dc 5a 3d 6e e7 a6 3b 20 fa 6c bb
       0.015272869 0.0534326 0.0050935065 -0.0036159828
0001e0 9d 92 a3 bc 8f 4b f9 3c 97 54 47 3d ce a5 a2 bc
       -0.019967372 0.030431537 0.048664656 -0.019854452
0001f0 8c 7e 6f bc 3a e8 8f 3b 3d 4a 53 bd a0 c7 d7 bc
       -0.0146175735 0.0043916972 -0.05158447 -0.026340306
000200 b7 44 0d bc 85 d0 ac 3c d1 ba f0 3b 25 1d 84 3c
       -0.00862234 0.021095524 0.007346489 0.016127178
000210 b3 76 49 bd b1 98 6a 3c d2 2b 9b bb 67 40 06 3d
       -0.049185466 0.014318631 -0.0047354484 0.032776263
000220 06 15 c6 3b 32 05 20 3d 4e 9a 02 3d 79 2d 3c 3d
       0.0060449867 0.039067455 0.031885438 0.045941804
000230 7d 71 45 3d 7e d7 19 3d 6b d3 a5 bc cf cc ce bc
       0.048203934 0.037559025 -0.020242414 -0.025244145
000240 20 fd 38 3c 06 b1 5e 3d c8 aa 24 bd 1d 37 21 bd
       0.011290818 0.05436804 -0.040201932 -0.0393592
000250 73 63 2e bd a8 4b 8f 3d ed 0a 3c bd 3d 0a 0c bd
       -0.04257531 0.06996852 -0.045908857 -0.03418945
000260 ea 57 c1 bc 7a dd de bc 5f 07 c7 bc e2 3d fa 3b
       -0.023601491 -0.027205218 -0.024295507 0.0076367715
000270 e7 2b 54 3c a6 4c 11 3d 98 a2 97 3d 09 d6 62 3d
       0.01294992 0.03547349 0.07404059 0.0553799
000280 48 7a a9 3c 13 a0 f2 3c 94 95 d4 bc b2 6e ae 3b
       0.020688191 0.029617345 -0.02595023 0.0053232545
000290 55 a2 fc ba 31 15 09 3c 3b e9 67 3d d2 cf cc bc
       -0.0019274453 0.008366869 0.05661891 -0.02500144
0002a0 7c 29 eb 3c a9 29 5b bb 92 4f 1e bd ed 3d 71 bc
       0.028706305 -0.003344158 -0.038650103 -0.014724237
0002b0 35 3b ae 3c e3 0d 6e 3d eb 5d 52 3c 9f db 63 bd
       0.021268466 0.058118712 0.012839775 -0.05562937
0002c0 9e 6c 10 3c 1e 32 62 3d 8b f5 2a 3d 83 fa 05 bd
       0.008814959 0.055223577 0.041738074 -0.03270961
0002d0 d6 e6 48 bd 64 b9 05 bd 9d 5f 20 bc b7 9b e8 3c
       -0.049048267 -0.032647505 -0.009788421 0.028394563
0002e0 92 de 91 3c 9c a4 fc bc e4 86 30 3d f4 5e 03 3b
       0.017806325 -0.03084021 0.04309739 0.002004561
0002f0 9d 25 cd bb f3 bd 29 bd b4 b1 9e 3c db fc 1d bb
       -0.0062605874 -0.041440915 0.019371845 -0.0024107012
000300 e0 03 8f 3d 04 14 08 3a 74 3b 2c 3d 54 c9 45 3d
       0.06983161 0.0005190971 0.042048886 0.048287705
000310 36 65 9d 3b fa 73 95 3c 8d 0c 50 bc 3a 29 72 3b
       0.004803325 0.018243778 -0.012698305 0.0036950842
000320 11 9c 88 bc de fc 3b bd 9e 09 b4 bc e5 84 9a 3d
       -0.01667598 -0.04589545 -0.021977242 0.07544879
000330 76 8f 42 3c 7b 71 2b bd 8d 3b b1 bb 2a 33 5e bd
       0.011875024 -0.04185627 -0.0054087103 -0.054248013
000340 98 d9 91 3d e5 43 b2 3c a7 dc e1 bb 2f dd c5 bc
       0.07121581 0.02176089 -0.006892759 -0.02415332
000350 a4 e5 06 3d a0 a8 bd 3c 5c 34 b8 3c b9 38 b7 3c
       0.032933846 0.023151696 0.022485904 0.022365915
000360 4b b4 36 3d c2 66 57 bc ba d5 77 bc b8 48 cc bb
       0.044605535 -0.013147058 -0.01512664 -0.0062342547
000370 8c b6 25 bc 2a 11 fc 3b 7d 28 2c bd ee 8a 86 bb
       -0.010114323 0.007692476 -0.0420308 -0.004105917
000380 d8 98 2b 3d 0e 0b 72 bd 9a ba b6 bc 3a 93 34 3d
       0.04189381 -0.059092574 -0.022305775 0.04408572
000390 8a d5 90 3d 2a 66 a4 3c fd 4b 48 bd 98 b4 d5 bc
       0.07071979 0.020068247 -0.048900593 -0.02608709
0003a0 88 22 65 3c 72 f1 91 3d 32 3e 90 3d fe cf 1c bd
       0.013985284 0.0712613 0.07043113 -0.038284294
0003b0 ea 56 45 3d 3b 26 c7 bc 4f 5c 5b bb 5d 85 2c bc
       0.04817859 -0.024310222 -0.0033471768 -0.010529843
0003c0 a0 51 e8 bc 7a 3b 99 bc 82 4e 6a bd 30 5b b1 3c
       -0.028359234 -0.018705118 -0.057203777 0.021649927
0003d0 62 18 84 bc 23 7a 3e bc b7 ed 2c bc e0 51 cc ba
       -0.016124908 -0.011625799 -0.0105547225 -0.0015588365
0003e0 8e 51 16 bd 20 35 4a bb 6b 11 a9 3c 9a 50 21 bd
       -0.03669887 -0.003085442 0.020638188 -0.03938351
0003f0 f4 84 3a bd d0 6d 8f bc e1 5e 1b 3c 96 d2 18 3c
       -0.04553695 -0.017508417 0.00948307 0.009327551

fc1.bias f4 [120]
000000 e1 9c a7 bc 6a e7 bd 3c 32 62 f9 bc ed 20 c8 3c
       -0.020460548 0.023181636 -0.030442331 0.024429763
000010 4f 13 fb bb 2a a8 19 bc ac b1 62 bc a5 81 ad bc
       -0.007662214 -0.009378472 -0.013836306 -0.021179983
000020 79 a5 14 bd a0 92 42 3d 2d 33 cf 3c a2 f8 21 bd
       -0.03629062 0.047503114 0.025292957 -0.039543755
000030 74 fb ca ba 7c a3 05 bd 22 d7 48 3d a7 35 b9 3c
       -0.0015486316 -0.032626614 0.04903329 0.022608591
000040 f3 c4 53 3d 86 ab 9a bc 39 40 d9 3b 7b 0c 05 3d
       0.051701497 -0.018880617 0.0066299704 0.032482605
000050 49 be be 3c 27 4d 09 bb 8f 66 1d 3d 0d ca be bc
       0.023284094 -0.0020950527 0.038427886 -0.023289705
000060 48 f3 3d 3c d7 35 05 3d 15 d6 06 3d ce 5c 6a 3c
       0.011593647 0.03252205 0.03291901 0.014304353
000070 c2 2c b7 bc 06 9a 1f bd 75 be 27 3d 68 74 16 3d
       -0.02236021 -0.038965248 0.04095312 0.036732107
000080 dc db bf 3c 30 7a 16 3c ba cf 93 3c 54 76 c4 bc
       0.023420267 0.009184405 0.018043388 -0.023982204
000090 48 32 2f 3d 91 96 89 3c 60 c1 2d 3d 58 53 1a bd
       0.04277256 0.016795428 0.042420745 -0.03767714
0000a0 4b 3d f2 bc 0d 49 3b 3d 34 8b a7 3c 1f 05 45 bd
       -0.029570242 0.045723964 0.02045212 -0.048100587
0000b0 f8 91 3d bd 18 59 b1 3c f6 8f a3 bc 97 b7 ff ba
       -0.046281785 0.021648929 -0.019966107 -0.001950967
0000c0 93 99 0a 3b bd 6f ac 39 de 98 15 3d b8 ed 24 3d
       0.0021148666 0.00032889648 0.03652274 0.04026577
0000d0 42 6c 08 bc 03 d1 c8 3b 91 c2 45 3d a8 58 2f 3d
       -0.008326592 0.0061284318 0.048281256 0.04280916
0000e0 1a f9 05 bc 45 72 06 3d 59 81 4c 3d 0f 21 1f bb
       -0.008177066 0.03282382 0.049928043 -0.002428118
0000f0 c6 7d 2d bd 3c 37 45 3c 65 82 8b 3c 04 d4 4e 3d
       -0.042356275 0.012037095 0.01702995 0.050495163
000100 c4 1b 5b 3b 36 84 09 3b 87 c8 4d bc 41 81 7b 3c
       0.0033433298 0.0020983345 -0.0125600165 0.015350641
000110 68 2d 17 3d a9 a3 20 3d e8 a4 ae 3c 56 62 15 bd
       0.036908537 0.03921858 0.021318868 -0.036470734
000120 d3 57 3f 3d 79 73 71 bb 11 70 2e 3d 86 7a 74 bc
       0.046714615 -0.0036842509 0.042587344 -0.01492179
000130 ec 10 64 bc 65 54 c8 bc 40 f6 c8 bc e8 5a ea 3c
       -0.01392005 -0.024454305 -0.024531484 0.0286078
000140 63 d9 21 bd 54 97 00 bd 09 38 1d bc 9b aa 69 bc
       -0.039513957 -0.031394318 -0.009595879 -0.014261867
000150 b8 4b ef bc 32 fe 1c bd fd 68 6f 3c 5e d1 62 bc
       -0.02921091 -0.038328357 0.0146124335 -0.013843862
000160 cf 20 ec 3b ea a7 c2 bb 22 a4 96 3b 88 73 79 3c
       0.0072060595 -0.005940427 0.004597203 0.015225299
000170 1f f3 3d 3c 20 20 5e 3d be e0 3d 3a dd 99 41 bd
       0.011593609 0.054229856 0.0007243267 -0.047265876
000180 77 87 94 bc 85 ac 0e 3d 49 f1 d2 bc be df 2e bd
       -0.018131 0.034832496 -0.02574982 -0.042693846
000190 be 26 d0 3c 01 8b 45 3c 60 ff 2e 3b 92 66 3e bd
       0.025409099 0.012057067 0.0026702508 -0.046484537
0001a0 4a 1b e9 3c b1 6c b5 bc 13 5b c3 bc 15 63 cd bc
       0.028455395 -0.022146555 -0.023847139 -0.02507166
0001b0 1a 2a 3a 3d 53 85 34 bd 37 27 2f bc 55 55 0f bb
       0.045450307 -0.04407246 -0.010690502 -0.002187093
0001c0 1f 98 29 bd af a7 3a 3d 73 6f 51 3d db 9a c1 3c
       -0.04140484 0.04557007 0.051131677 0.023633411
0001d0 1f 4d c1 3c 75 ed 2b bd dd 43 98 bc f0 5a 38 bc
       0.023596345 -0.041974504 -0.018587047 -0.01125215

fc2.weight f4 [84, 120]
000000 43 b0 84 bd bb 1f b1 3d b6 a3 cf bd 58 33 19 bd
       -0.06478932 0.0864863 -0.10138647 -0.03740248
000010 18 fb 8a bd 45 13 15 bd a8 ec c5 bb 20 7f b6 bd
       -0.067861736 -0.03639533 -0.0060401745 -0.08910966
000020 97 79 e7 3c ec 22 b8 3d 38 17 92 3d 6d 94 a6 bd
       0.02825622 0.08991036 0.07133335 -0.08133779
000030 5b 21 40 3d 95 8a 45 bc a0 ee 9b 3d 2a 82 76 bd
       0.04690681 -0.012056966 0.076138735 -0.060182728
000040 6b 18 52 3c b1 77 19 3d fc 48 91 3d de 78 7d 3d
       0.0128232045 0.037467662 0.07093999 0.061882846
000050 dc 2f 7f 3d ad 93 0e 3e 6d 19 90 bc c5 e4 04 3e
       0.0623015 0.13923521 -0.017590249 0.12977894
000060 96 f4 b5 bd df 82 b0 3c 55 38 8d bd 12 03 5e bd
       -0.08884542 0.02154678 -0.0689551 -0.054202147
000070 dd cc 9c 3b 0b 54 1e bd 33 42 9b bd 6f 9d dd 3d
       0.004785164 -0.03865437 -0.07580986 0.10821044
000080 8a 1e ca bd 49 3e 37 3d 94 d6 b9 3b e0 f0 b9 3d
       -0.09869106 0.044737134 0.0056713317 0.090791464
000090 72 6d a6 bd 8d 1e d0 bd c6 63 5b 3d 02 05 92 bd
       -0.08126344 -0.10162077 0.05356195 -0.071298614
0000a0 44 f3 99 bc 4a d5 f6 ba b6 9c da bb 01 7c 9d bd
       -0.018792756 -0.0018831876 -0.0066715134 -0.076896675
0000b0 30 50 3c 3d 90 f5 0b 3b 91 e6 ac bc 28 d5 ab 3d
       0.04597491 0.0021356083 -0.021106036 0.08390266
0000c0 80 6c 9d 3b db 61 8d bd fd d7 0a bd 5a d1 90 3d
       0.004804194 -0.0690343 -0.03389739 0.07071181
0000d0 c0 81 a7 3d 46 31 de bc ab 50 ea 3c 2b 45 e1 bc
       0.08179045 -0.027123105 0.028602919 -0.027498802
0000e0 25 35 97 bd a5 00 bb bc b3 6a 2a 3d 60 8c fc bc
       -0.073831834 -0.022827456 0.041605663 -0.030828655
0000f0 d0 37 2c bd a3 69 ee 3d 36 28 90 bc 9b fc 8e 3b
       -0.042045414 0.11641242 -0.0175973 0.004363609
000100 e6 cb fc 3b 9c 52 58 3c 02 06 c4 bd 23 08 12 bd
       0.0077147363 0.013203289 -0.095714584 -0.03565229
000110 00 fa 49 3d 6d 67 e9 bd 28 4b 21 bc 75 83 90 3d
       0.049310684 -0.1139668 -0.009844579 0.070563234
000120 2a a2 b2 bd 73 77 e8 3d cc b7 59 3c 9d 16 b6 bd
       -0.087223366 0.11350908 0.0132884495 -0.08891032
000130 33 65 96 3d 6f 2d da bc ca ca 4f bd da 7f 08 be
       0.07343521 -0.026632993 -0.050730504 -0.13330022
000140 73 7d 90 bc 8e 6d 97 3d 07 ce 9d bd fa 0f 01 bd
       -0.017637944 0.07393943 -0.07705312 -0.031509377
000150 38 78 b7 3d 19 0c 8e bd eb d2 a5 ba 4c 4a e2 bb
       0.08958477 -0.06935901 -0.001265136 -0.0069058295
000160 85 3e d7 bd 3d cc cf 3c 86 fb 3d 3d 65 d8 2e 3d
       -0.105099715 0.025365943 0.04638245 0.04268684
000170 f0 30 38 b9 a2 b9 69 bd e4 12 cf 3c 35 93 22 3d
       -0.00017565838 -0.0570618 0.025277562 0.03969117
000180 15 06 97 bc d8 a6 f0 3d a8 60 2b 3d 4e dd 3e 3c
       -0.018435517 0.11750573 0.041840225 0.011649443
000190 39 f7 4f 3d e0 87 67 bd 48 3e 4d 3d 35 ec 79 bd
       0.05077288 -0.056526065 0.050108224 -0.06101628
0001a0 5a e9 9c 3d f7 c2 20 bd 64 cd ba bc 7f db 9b bc
       0.07661696 -0.039248433 -0.022803016 -0.019025562
0001b0 cd 4d 32 3e e0 39 39 bd e1 d1 31 3d 7d ab 08 bc
       0.17412491 -0.04522121 0.043413047 -0.008341667
0001c0 56 ae 86 3c 13 20 aa 3d 4c 00 6c bd 67 4f 0c 3d
       0.016440552 0.08306899 -0.05761747 0.03425541
0001d0 9a d1 ba bd c3 71 76 bd 97 87 9b 3d 56 87 93 bd
       -0.091220096 -0.060167085 0.07594221 -0.07203548
0001e0 c0 46 91 bd 3f 3c 51 bd 5f 19 d5 3c 5b 8e 9b bd
       -0.070935726 -0.051082846 0.026013074 -0.075955115
0001f0 d1 cc a9 3d 0e 3b da bc 15 1c d5 3c 6a 34 b8 bd
       0.08291019 -0.026639488 0.026014367 -0.08994372
000200 f4 26 aa 3d ad 7f a8 3c a3 a3 27 3d a1 a5 49 3d
       0.08308211 0.020568693 0.04092754 0.04923022
000210 63 5b bc bd 60 96 6e 3c 69 89 47 3c 0b 92 9b bd
       -0.09197118 0.014562219 0.012178757 -0.07596215
000220 82 e8 d4 bc 77 b1 f6 bc 63 c8 b8 3d 63 be 4f bd
       -0.025989775 -0.030113919 0.09022596 -0.050718676
000230 8d df 1a bd 02 da 62 3d d0 03 8e 3c b7 8e 88 3d
       -0.03781085 0.05538369 0.017335802 0.06667846
000240 21 c9 7e bc a7 f4 ae bd 8b f8 a5 3d 12 e8 85 3d
       -0.015550883 -0.085427575 0.081040464 0.065384045
000250 c1 74 9a 39 eb 71 b5 bc 58 eb 01 3c a7 9e 49 bd
       0.00029460157 -0.022149047 0.0079296455 -0.04922357
000260 4f ba b4 ba c0 35 d2 bc a4 60 1f bd 30 24 89 bd
       -0.0013788434 -0.025660396 -0.038910523 -0.06696355
000270 9a b1 50 3d 02 8a b4 bd 78 ca a1 bd bd 8f 96 bd
       0.050950624 -0.088153854 -0.07899946 -0.07351635
000280 20 1a 51 bd 28 b8 85 bd 58 a3 4a 3c 96 80 4c bd
       -0.051050305 -0.06529266 0.012368046 -0.049927317
000290 06 f1 16 bd 2d 90 ae bd ea 7b f1 bc a1 5c 9c bc
       -0.03685095 -0.08523593 -0.029478032 -0.019087138
0002a0 f5 c3 0a 3c cf 07 c3 3c a1 a8 8b bd 2a 41 9d bd
       0.008469571 0.023807434 -0.06819273 -0.07678445
0002b0 d8 ee 08 3d c6 0e 2a bd 84 97 1e 3d 14 f9 80 bc
       0.033430904 -0.041517995 0.038718715 -0.01574377
0002c0 74 5f 8b bd 87 92 96 3d 3a ca a4 bd 4a be 24 bb
       -0.068053156 0.073521666 -0.08046384 -0.0025137835
0002d0 b2 3c 03 3c cd ff 83 3d dc 71 e8 bb 8b 44 67 3d
       0.008010076 0.064452745 -0.007093651 0.056461852
0002e0 1d f1 3b 3c bf 17 74 bb d0 11 f9 3b 32 31 b7 bb
       0.01147106 -0.00372456 0.0076010004 -0.0055905813
0002f0 cc c6 5a 3d ea a3 11 3d 5e 78 a8 3d 2e 76 be bc
       0.053412244 0.03555671 0.08226083 -0.023249712
000300 e0 23 98 3c d4 f9 94 3d c8 6e 35 bc 78 fe 5a 3c
       0.018571794 0.072742134 -0.011073776 0.013366334
000310 9e 2d 77 3d f9 1a 87 bd 7a 03 f9 3c 79 a4 5d bd
       0.06034624 -0.065969415 0.030397166 -0.05411193
000320 6e 60 c7 3b 92 f0 aa 3d 89 73 ac b9 12 15 9f 3d
       0.0060844934 0.083466664 -0.00032892477 0.07767691
000330 38 ff b9 3d ed 8d 02 bd 2f de 35 bc 26 67 37 3c
       0.09081882 -0.031873632 -0.011100336 0.011194026
000340 e8 a3 7a 3d c7 62 78 bb 3c d2 00 3c 7b 1b 86 bb
       0.06119147 -0.0037900673 0.007862624 -0.0040926314
000350 55 e2 86 3d 2d d2 4e 3d d9 9e 15 bc 55 43 3f 3b
       0.06586138 0.050493408 -0.0091321105 0.002918442
000360 13 ac a2 3c 9a 5e 97 bb 8a e8 e5 bc f4 6c 9d 3d
       0.019857442 -0.0046194317 -0.028064985 0.07686797
000370 f1 8d 1e bd af 23 af bd 2c 31 da bb 6d eb 32 3d
       -0.038709585 -0.08551728 -0.006658694 0.04368155
000380 6c 52 85 bd 68 02 a0 3c 58 20 f1 3c 8a a2 78 3d
       -0.06509861 0.019532397 0.029434368 0.060701884
000390 ae ed ad bd 60 37 c4 bd 43 e7 3b 3d 50 70 8b bd
       -0.084925994 -0.095808744 0.045874845 -0.06808531
0003a0 6d 2d 05 bc 0b fb cc bc 02 7c b8 3a 2e 0d 30 bb
       -0.008128506 -0.02502205 0.0014075043 -0.0026863324
0003b0 cd 7c 16 bd b0 57 91 3c 14 dc a6 bd bd 51 44 3d
       -0.036740113 0.017742008 -0.08147445 0.047929514
0003c0 63 9b 4a bd 60 98 bd 3c 01 6e 78 3d 4d 3b 98 bd
       -0.049464595 0.023143947 0.060651783 -0.07433186
0003d0 29 28 e6 3c 1d 1a 17 3d 9b ba 91 3d cb 2a 5d bd
       0.028095322 0.036890138 0.0711567 -0.05399589
0003e0 6e c2 9f 3c fc a9 47 3d 58 8b 1b 3d 2c 24 03 bc
       0.019501891 0.048746094 0.037974685 -0.0080042295
0003f0 2a eb 87 bd 0a 25 6a 3d be 1e 81 3a 9f ee 4c 3d
       -0.06636651 0.05716423 0.0009851081 0.050032254

fc2.bias f4 [84]
000000 63 11 07 bd 45 bc 85 bd 45 d7 2a 3b c9 70 37 bd
       -0.032975566 -0.0653005 0.0026068252 -0.044785295
000010 3a e6 b3 bd fa 3b 06 3d b5 5b 02 bd ac 8b 63 3c
       -0.087841466 0.03277204 -0.03182574 0.013888281
000020 e1 0e 69 bd df b2 1c 3d bd 51 3b bc 97 f4 ba bc
       -0.056898955 0.038256522 -0.011433062 -0.022821708
000030 73 ba 7d bd 87 bd f5 3c 88 7a af 3d 76 6e 5f 3d
       -0.06194539 0.0299976 0.08568293 0.054548703
000040 0b dc bd 3d d1 98 61 3d 83 a9 7e 3c b1 0c a7 bd
       0.092704855 0.055077378 0.015543344 -0.081567176
000050 7c 64 c7 bc 4f e8 75 bc db b2 66 bd 7c b0 50 3d
       -0.024339907 -0.015009 -0.056322914 0.05094956
000060 87 1c d0 3d c2 5d 9b 3d 52 e8 6d 3d 28 46 01 3d
       0.10161691 0.07586242 0.058082886 0.031561047
000070 25 b1 4f 3d f8 56 83 bd 40 ba 1a 3d 76 68 8a 3d
       0.050706048 -0.06413072 0.037775278 0.067582056
000080 3a 09 3a 3d 33 88 11 bd 0b d0 52 3d cc 3d 21 3d
       0.045418955 -0.03553028 0.051467936 0.039365575
000090 30 a2 e3 3c 7f a8 80 3d 96 4b 9a 3d f7 c4 48 bd
       0.027787298 0.06282138 0.07533948 -0.049015965
0000a0 af a6 2b bd 17 bb b2 3d 05 b6 b1 3b aa ee 36 bd
       -0.04190701 0.08727091 0.0054233097 -0.0446612
0000b0 f0 4b 06 bd 21 74 6c 3d f2 e3 48 3d e6 4b 7c 3c
       -0.032787263 0.057727937 0.04904551 0.015398955
0000c0 aa 38 03 ba ef a8 5f b9 72 81 f6 bc 70 43 1d 3d
       -0.0005005697 -0.0002132987 -0.030091021 0.03839439
0000d0 70 cf 95 3c af 32 52 bd 41 21 8e bd c0 ce 8d bd
       0.01828739 -0.051317867 -0.069399364 -0.069242
0000e0 af dd 0a bd 7e 23 ba 3d 6c f9 7f 3d 77 e8 94 3d
       -0.03390282 0.09088801 0.062493727 0.07270902
0000f0 63 97 89 bc 18 08 c0 3d 1c 79 7f 3d 3a 64 f0 3c
       -0.01679582 0.09376544 0.06237136 0.029344667
000100 9b 1e e2 3c 7f e2 43 3d d6 a5 9f bc 7b 63 5e 3d
       0.027602484 0.047823425 -0.019488256 0.05429409
000110 7b c1 cd bc af 12 89 3d 37 30 61 3c 2a ce 9f 3c
       -0.025116673 0.06693017 0.0137444055 0.019507486
000120 5d 40 9f bc 20 07 ab 3d 4b 65 16 3d 95 c2 86 bd
       -0.01943987 0.08350968 0.036717694 -0.06580082
000130 21 61 38 3d 0a 2a 54 bc 0c d8 4f 3d f5 ae c2 3b
       0.045014504 -0.012949476 0.050743148 0.0059412667
000140 49 0d fe 3c ab fd a1 3d 7c 5f b7 3d 7d 7f 3e bc
       0.031012194 0.079097115 0.08953759 -0.011627075

fc3.weight f4 [10, 84]
000000 64 56 3f bd c7 4f 1b bd 49 82 3b bd 15 5f 0a be
       -0.046713248 -0.03791788 -0.045778546 -0.13512833
000010 2b 8b 74 3d 0e 7e 3f bd 1e ba 5a 3e c5 03 09 3e
       0.059703033 -0.046751074 0.2136006 0.13380344
000020 c4 cf ea 3d 57 3d f8 3c 28 20 3c bd 68 49 86 bd
       0.114654094 0.030302687 -0.045929104 -0.0655697
000030 4e 91 b3 3d c0 42 6a 3d 9b 80 16 3e 7d 04 bf bd
       0.08767949 0.057192564 0.14697497 -0.09327028
000040 b1 43 89 bb dc 52 8f bd 7a 5f 12 bd f3 fb a1 3d
       -0.0041889776 -0.06998226 -0.035735585 0.079093836
000050 ea cb e3 bd 8f 83 cb bd 26 01 8a bd b4 aa af bc
       -0.11122878 -0.09937202 -0.067385 -0.021443702
000060 31 e1 c3 3c 4e e4 17 bd 0f 54 81 3e e8 ea 11 3e
       0.02391109 -0.037082963 0.25259444 0.14249766
000070 7e ee 5f bd 06 ba 01 3d d5 67 06 3c 48 ce d9 3d
       -0.054670803 0.031671546 0.008203466 0.10635048
000080 54 a2 f9 3d 3d d6 48 be 24 26 d9 bd f6 33 00 be
       0.12189165 -0.19612975 -0.10602978 -0.12519822
000090 64 46 2f 3d 78 17 12 be a5 54 4a 3d e3 65 77 3d
       0.04279174 -0.14266765 0.04939713 0.0603999
0000a0 50 e2 9a bd 64 96 3a be fe 20 45 3c 58 93 e2 bd
       -0.07562697 -0.18221432 0.012031792 -0.1106326
0000b0 6c 23 2f 3c b1 7b 63 bd 0d 0d 90 be 4e 16 f5 3b
       0.010689598 -0.055537883 -0.28134957 0.0074794656
0000c0 74 21 57 be dd 13 a9 3d de 00 b4 bd 2f e0 fc ba
       -0.21008855 0.08255742 -0.08789228 -0.0019292886
0000d0 1b 08 f5 39 39 83 91 bd 0e 56 83 bc 7a b3 e6 bd
       0.0004673608 -0.07105107 -0.016032245 -0.11264701
0000e0 c0 7a ec bc 47 a1 15 be 15 a9 91 bc bc 6f d7 3d
       -0.028867126 -0.14612304 -0.01778082 0.105193585
0000f0 ef 53 ac bd 2a 44 d2 bd 79 84 36 3d 4e e7 47 3d
       -0.084144466 -0.102669075 0.04455993 0.048804574
000100 00 30 04 bc fb dd ce 3d ee 25 a9 be c3 bc 28 3e
       -0.008068085 0.10100933 -0.3303675 0.16478257
000110 65 4d 14 3e ad 27 91 3d 89 09 1e bd c2 65 6c 3d
       0.14482649 0.07087646 -0.038583312 0.05771423
000120 c9 4b 51 3e 98 0d fd bd 11 9d 75 bb bb 74 54 bd
       0.20439066 -0.123561084 -0.0037477652 -0.051869135
000130 cd c7 91 3b c3 0c 3b bd a8 4f 01 be 4d 2c 02 3e
       0.004448867 -0.045666467 -0.12628043 0.12712212
000140 ef 89 4c bc 87 93 1f 3e 9e 0b 3f 3e 7c 64 96 3b
       -0.012484058 0.15583621 0.18656775 0.0045896154
000150 0b 3b 3e be 3a b9 0d bd 0e 86 1f 3c 42 28 41 3e
       -0.1857721 -0.034600474 0.009736551 0.18863013
000160 93 72 ae 3d 09 5b c5 3d 88 d4 f5 bd d7 84 f9 bd
       0.08517947 0.09636504 -0.12003428 -0.1218354
000170 a8 be 2b be 7a 03 0a 3d 52 45 88 3d 14 1b c5 bb
       -0.16771948 0.03369472 0.06653847 -0.006015191
000180 1d c2 db bc 79 31 e7 bc 42 f7 1a be da d7 08 be
       -0.026825959 -0.028221833 -0.15133384 -0.13363591
000190 c6 b2 39 3e 53 71 5f 3e 92 c4 db 3d ea ce 97 bc
       0.18134603 0.21820574 0.10730852 -0.018531282
0001a0 35 7a 1b be 2b b4 ad 3d ea 56 c8 3c d3 4c 75 3e
       -0.15183337 0.0848163 0.024455506 0.23955087
0001b0 18 1c a1 3d 8e 7b d9 3d c5 04 19 bd 62 bf 48 3e
       0.078666866 0.10619269 -0.037358064 0.19604257
0001c0 46 81 2e be 49 b8 7f bd 23 56 11 be 06 39 ab bc
       -0.17041501 -0.062431607 -0.14193015 -0.020901214
0001d0 7b b6 2d 3c 64 16 50 bd 0e ef d6 b9 6e b8 30 be
       0.010602589 -0.050802603 -0.0004099537 -0.17257854
0001e0 b5 6b 2c bd 0d d1 b6 bc b2 39 cf 3d 42 93 73 bc
       -0.042094905 -0.02231648 0.101184264 -0.014866652
0001f0 51 10 25 3e 7a 4c 0f 3e 04 f4 4e bd 8b ba 52 3d
       0.16119505 0.13994017 -0.05052568 0.051447432
000200 3a aa 38 be 88 a8 9d bd 83 57 0c bd 2e 42 15 bd
       -0.18033686 -0.076981604 -0.034263145 -0.036440067
000210 44 22 39 3b 13 8d b3 bc 9d af bc 3d 1e db 3b bd
       0.0028249184 -0.021917855 0.09213183 -0.045863263
000220 ce 49 b8 bd f2 6a 35 bd 1b f4 28 bd e4 b2 be 3d
       -0.08998452 -0.044291444 -0.041248422 0.093114644
000230 47 df fc 3d 65 6c d2 3d 9d 93 8f 3d 43 02 31 3e
       0.12347274 0.10274581 0.07010577 0.17286019
000240 8d 50 12 3e df 6e 63 be 8d a5 43 3e 5d 28 07 bd
       0.1428854 -0.22210263 0.19106121 -0.032997478
000250 05 95 81 bd 6c 41 bf 3d 4c ff 93 3d e0 91 4f bd
       -0.06327251 0.0933865 0.072264284 -0.050676227
000260 e9 87 f3 3d 4b 8b 87 3d 16 45 af 3d 11 06 d8 3d
       0.11891157 0.06618365 0.08558099 0.10548032
000270 be a8 76 be 53 37 26 3c 0a 8f 73 3d e2 c2 74 bd
       -0.24087808 0.010145026 0.059462585 -0.059756167
000280 54 4d 66 3c 47 5c 56 3e 8b 5d 0c 3e 4d 0d a7 bd
       0.014056522 0.20933639 0.13707559 -0.08156834
000290 87 b6 be 3d 04 1d 9b bd da 4c 54 bd 01 0f 2d 3c
       0.09312158 -0.07573894 -0.051831104 0.010562659
0002a0 03 7c 09 3e e2 96 ac bd 07 28 9c 3d ad 8b 0d 3e
       0.13426213 -0.08427216 0.07624822 0.13822813
0002b0 89 50 08 bd aa 65 de 3d 90 60 57 3d 0e 65 4c bd
       -0.03327993 0.10859235 0.052582324 -0.04990106
0002c0 c8 f5 33 3d 87 f4 b2 bd df 75 c1 bd 55 77 56 bc
       0.043935567 -0.08738046 -0.0944631 -0.013089974
0002d0 f3 60 07 be 06 e8 0f be 6c 9a 87 be 53 72 23 bd
       -0.13220577 -0.14053354 -0.26485002 -0.03990395
0002e0 01 1b 6f bd 03 57 77 bd b4 74 10 be 21 44 cd bd
       -0.058375362 -0.060385715 -0.14107019 -0.1002276
0002f0 24 de a7 bd b6 97 a9 bc 85 3a d1 bd a8 57 70 3c
       -0.08196667 -0.020702224 -0.1021624 0.014669336
000300 7c 3e 8a 3d 63 d3 2c 3e 49 a7 11 3c 40 79 32 3d
       0.06750199 0.16877513 0.008889982 0.043572664
000310 c8 2a 03 3e fe 5a cf bd 77 80 04 bd 8f 83 4e be
       0.12809289 -0.10124777 -0.032349076 -0.20167373
000320 c6 92 f7 3d e3 fd 1b 3e 3a 6a b5 bd e3 8d 3d be
       0.12088542 0.15233569 -0.08858152 -0.18511157
000330 3f fb d1 bc a4 77 8c bd cf 78 9a 3d 62 97 b2 3c
       -0.025632499 -0.06858757 0.07542574 0.0218007
000340 26 8c ab bd 71 b4 dd bd 02 fb c4 3d 0c 12 5a bc
       -0.083763406 -0.10825432 0.096181884 -0.013309967
000350 ea d7 44 3d 93 54 ef bc a0 39 02 bd a2 cc c5 3d
       0.048057474 -0.029215133 -0.031793237 0.09658171
000360 3f 66 02 be 2a 86 3f 3e 40 2d 8b bc f1 22 15 3e
       -0.12734316 0.18703523 -0.01698935 0.1456411
000370 f4 ca 5c bd 2f 1d c6 bc 3c 53 9f bb d1 0e 3d bd
       -0.05390449 -0.024183838 -0.004862217 -0.04615671
000380 e9 0e 74 3c 60 dd 10 be d1 2a e9 3d f1 7d 3b bd
       0.014896133 -0.14146948 0.1138512 -0.045774404
000390 f2 c4 10 bd c4 60 dc 3d 04 44 b8 bd 42 cf aa 3d
       -0.03534407 0.10760644 -0.08997348 0.083403125
0003a0 07 b8 3e 3d 22 08 a8 3d 51 f6 11 bd f1 2d 26 3e
       0.04656222 0.08204676 -0.035635296 0.16228463
0003b0 74 68 ad 3d de f1 ad 3d 3b 05 88 3b 60 c8 6b bd
       0.084671885 0.08493398 0.004151014 -0.05756414
0003c0 e2 d4 1e 3e 1d 93 75 3e 9e fb e1 3d 1e 31 e4 bd
       0.15510896 0.239819 0.1103432 -0.11142181
0003d0 fb 72 28 be 3a 77 72 3e 35 8d 1c be 0b e7 c2 3d
       -0.16450112 0.23678294 -0.15288241 0.09516724
0003e0 ad bd 25 3d 3c db 1c be 5e d8 56 bd 5f 58 23 3e
       0.040464092 -0.15318006 -0.052452438 0.1595168
0003f0 3b a2 9b 3d d5 97 b2 3d b6 fd dd bd d9 35 5e be
       0.075993024 0.08720366 -0.10839407 -0.21700229

fc3.bias f4 [10]
000000 ca 04 f3 3c 9d c2 ad 3d 72 60 ad bd 5a d2 9c bc
       0.02966537 0.08484385 -0.08465661 -0.019143272
000010 1a 30 a1 bc aa 6a 90 3d cc 3c a8 bd 32 27 ca bb
       -0.019676257 0.070515946 -0.08214721 -0.006169223
000020 be 17 c1 3c 62 79 24 bd
       0.023570891 -0.040154822
